…
=== torchinfo: VariationalEncoder (EncoderV2) ===
================================================================================================================================================================
Layer (type:depth-idx)                                       Input Shape               Output Shape              Param #                   Mult-Adds
================================================================================================================================================================
VariationalEncoder                                           [1, 16, 3000]             [1, 256, 24]              --                        --
├─EncoderV2: 1-1                                             [1, 16, 3000]             [1, 256, 24]              --                        --
│    └─CachedSequential: 2-1                                 [1, 16, 3000]             [1, 256, 24]              --                        --
│    │    └─Conv1d: 3-1                                      [1, 16, 3000]             [1, 96, 3000]             10,848                    1,041,408
│    │    └─Residual: 3-2                                    [1, 96, 3000]             [1, 96, 3000]             37,056                    3,557,376
│    │    └─Residual: 3-3                                    [1, 96, 3000]             [1, 96, 3000]             37,056                    3,557,376
│    │    └─Residual: 3-4                                    [1, 96, 3000]             [1, 96, 3000]             37,056                    3,557,376
│    │    └─LeakyReLU: 3-5                                   [1, 96, 3000]             [1, 96, 3000]             --                        --
│    │    └─Conv1d: 3-6                                      [1, 96, 3000]             [1, 192, 750]             147,648                   28,348,416
│    │    └─Residual: 3-7                                    [1, 192, 750]             [1, 192, 750]             147,840                   28,385,280
│    │    └─Residual: 3-8                                    [1, 192, 750]             [1, 192, 750]             147,840                   28,385,280
│    │    └─Residual: 3-9                                    [1, 192, 750]             [1, 192, 750]             147,840                   28,385,280
│    │    └─LeakyReLU: 3-10                                  [1, 192, 750]             [1, 192, 750]             --                        --
│    │    └─Conv1d: 3-11                                     [1, 192, 750]             [1, 384, 188]             590,208                   226,639,872
│    │    └─Residual: 3-12                                   [1, 384, 188]             [1, 384, 188]             590,592                   226,787,328
│    │    └─Residual: 3-13                                   [1, 384, 188]             [1, 384, 188]             590,592                   226,787,328
│    │    └─Residual: 3-14                                   [1, 384, 188]             [1, 384, 188]             590,592                   226,787,328
│    │    └─LeakyReLU: 3-15                                  [1, 384, 188]             [1, 384, 188]             --                        --
│    │    └─Conv1d: 3-16                                     [1, 384, 188]             [1, 768, 47]              2,360,064                 1,812,529,152
│    │    └─Residual: 3-17                                   [1, 768, 47]              [1, 768, 47]              2,360,832                 1,813,118,976
│    │    └─Residual: 3-18                                   [1, 768, 47]              [1, 768, 47]              2,360,832                 1,813,118,976
│    │    └─LeakyReLU: 3-19                                  [1, 768, 47]              [1, 768, 47]              --                        --
│    │    └─Conv1d: 3-20                                     [1, 768, 47]              [1, 1536, 24]             4,720,128                 7,250,116,608
│    │    └─LeakyReLU: 3-21                                  [1, 1536, 24]             [1, 1536, 24]             --                        --
│    │    └─Conv1d: 3-22                                     [1, 1536, 24]             [1, 256, 24]              1,179,904                 302,055,424
================================================================================================================================================================
Total params: 16,056,928
Trainable params: 16,056,928
Non-trainable params: 0
Total mult-adds (Units.GIGABYTES): 14.02
================================================================================================================================================================
…
=== torchinfo: GeneratorV2 (decoder only, excl. inverse PQMF) ===
===========================================================================================================================================================
Layer (type:depth-idx)                                  Input Shape               Output Shape              Param #                   Mult-Adds
===========================================================================================================================================================
GeneratorV2                                             [1, 128, 24]              [1, 16, 3072]             --                        --
├─CachedSequential: 1-1                                 [1, 128, 24]              [1, 32, 3072]             --                        --
│    └─Conv1d: 2-1                                      [1, 128, 24]              [1, 1536, 24]             591,360                   908,328,960
│    └─LeakyReLU: 2-2                                   [1, 1536, 24]             [1, 1536, 24]             --                        --
│    └─ConvTranspose1d: 2-3                             [1, 1536, 24]             [1, 768, 48]              4,720,128                 3,625,058,304
│    └─Residual: 2-4                                    [1, 768, 48]              [1, 768, 48]              --                        --
│    │    └─Branches: 3-1                               [1, 768, 48]              [1, 768, 48]              2,360,832                 1,813,118,976
│    └─Residual: 2-5                                    [1, 768, 48]              [1, 768, 48]              --                        --
│    │    └─Branches: 3-2                               [1, 768, 48]              [1, 768, 48]              2,360,832                 1,813,118,976
│    └─LeakyReLU: 2-6                                   [1, 768, 48]              [1, 768, 48]              --                        --
│    └─ConvTranspose1d: 2-7                             [1, 768, 48]              [1, 384, 192]             2,360,064                 906,264,576
│    └─Residual: 2-8                                    [1, 384, 192]             [1, 384, 192]             --                        --
│    │    └─Branches: 3-3                               [1, 384, 192]             [1, 384, 192]             590,592                   226,787,328
│    └─Residual: 2-9                                    [1, 384, 192]             [1, 384, 192]             --                        --
│    │    └─Branches: 3-4                               [1, 384, 192]             [1, 384, 192]             590,592                   226,787,328
│    └─Residual: 2-10                                   [1, 384, 192]             [1, 384, 192]             --                        --
│    │    └─Branches: 3-5                               [1, 384, 192]             [1, 384, 192]             590,592                   226,787,328
│    └─LeakyReLU: 2-11                                  [1, 384, 192]             [1, 384, 192]             --                        --
│    └─ConvTranspose1d: 2-12                            [1, 384, 192]             [1, 192, 768]             590,208                   113,319,936
│    └─Residual: 2-13                                   [1, 192, 768]             [1, 192, 768]             --                        --
│    │    └─Branches: 3-6                               [1, 192, 768]             [1, 192, 768]             147,840                   28,385,280
│    └─Residual: 2-14                                   [1, 192, 768]             [1, 192, 768]             --                        --
│    │    └─Branches: 3-7                               [1, 192, 768]             [1, 192, 768]             147,840                   28,385,280
│    └─Residual: 2-15                                   [1, 192, 768]             [1, 192, 768]             --                        --
│    │    └─Branches: 3-8                               [1, 192, 768]             [1, 192, 768]             147,840                   28,385,280
│    └─LeakyReLU: 2-16                                  [1, 192, 768]             [1, 192, 768]             --                        --
│    └─ConvTranspose1d: 2-17                            [1, 192, 768]             [1, 96, 3072]             147,648                   14,174,208
│    └─Residual: 2-18                                   [1, 96, 3072]             [1, 96, 3072]             --                        --
│    │    └─Branches: 3-9                               [1, 96, 3072]             [1, 96, 3072]             37,056                    3,557,376
│    └─Residual: 2-19                                   [1, 96, 3072]             [1, 96, 3072]             --                        --
│    │    └─Branches: 3-10                              [1, 96, 3072]             [1, 96, 3072]             37,056                    3,557,376
│    └─Residual: 2-20                                   [1, 96, 3072]             [1, 96, 3072]             --                        --
│    │    └─Branches: 3-11                              [1, 96, 3072]             [1, 96, 3072]             37,056                    3,557,376
│    └─LeakyReLU: 2-21                                  [1, 96, 3072]             [1, 96, 3072]             --                        --
│    └─Conv1d: 2-22                                     [1, 96, 3072]             [1, 32, 3072]             21,536                    689,152
===========================================================================================================================================================
Total params: 15,479,072
Trainable params: 15,479,072
Non-trainable params: 0
Total mult-adds (Units.GIGABYTES): 9.97
===========================================================================================================================================================
…
